C3 - Apply Generative Adversarial Network (GAN)/Week 1/class.pt (torch_old, 840909 bytes, 20 tensors)

disc.0.0.weight f4 [32, 3, 3, 3]
000000 cf 97 aa 3d 92 75 dd 3d 68 dc 8d 3d fd 9c 03 3e
       0.083297364 0.108134404 0.06926805 0.12852855
000010 02 78 8a 3d 90 86 cb bd 65 b2 2e 3e 40 d5 ee 3c
       0.06761171 -0.09937775 0.1706024 0.02915442
000020 26 b5 b0 3d c3 f2 1e be 92 a1 82 3d a4 6e 58 bd
       0.08628301 -0.15522294 0.06378473 -0.05283989
000030 a2 ba 2f 3d f7 74 d1 3d c6 3d c2 3d 57 6f 34 3e
       0.042902596 0.102273874 0.094844386 0.17620598
000040 ee b9 34 3e 30 8d 6c 3d 20 d1 07 3c 3e 06 08 3e
       0.17649052 0.057751834 0.008289605 0.13283631
000050 65 0f 0c 3c 5c 58 05 3e 43 a5 4f bd 1c 39 03 3e
       0.008548592 0.13021988 -0.050694715 0.12814754
000060 f7 bc 36 be 6f fb 1b be b6 7b 54 3d ca 7c 80 3c
       -0.17845522 -0.15232633 0.051875792 0.015684504
000070 f8 6d dd bc 15 04 fa bc 48 cb 3c be 7f d3 f6 3d
       -0.027029976 -0.030519525 -0.1843692 0.120520584
000080 8c 55 3b be fe c9 21 3e 96 09 00 3e 01 19 2c be
       -0.18294352 0.1579971 0.12503657 -0.16806413
000090 cc 29 88 3d 51 6e de 3c 62 2d a3 bd ae 7f 6e bd
       0.06648597 0.027152212 -0.079676405 -0.058227234
0000a0 d5 4d 70 bd b8 55 16 be ed 75 8f 3d 2b 99 71 bd
       -0.058667976 -0.14681137 0.070049144 -0.058983963
0000b0 d9 04 29 bd a1 7a c3 3d 0b 77 12 be 51 4b 07 3e
       -0.04126439 0.09544874 -0.14303224 0.13212325
0000c0 7b 9f ad 3c d3 ab 6d bd d7 eb 80 bd c9 99 86 bd
       0.02119421 -0.058025192 -0.06294983 -0.06572301
0000d0 fe 84 d0 3d 09 43 f1 3d 33 22 69 3d 51 5b 3c 3e
       0.10181616 0.11780364 0.05691738 0.1839421
0000e0 55 05 31 be c4 86 24 be 6e a5 85 bd 0d 0f 28 be
       -0.1728719 -0.16067034 -0.06525694 -0.16411991
0000f0 be a5 8f 3c 35 63 30 3e 1d 96 21 bd 8f 54 02 3d
       0.017535087 0.17225344 -0.0394498 0.031818923
000100 09 fa 66 bd 0a 06 41 be 5a a9 3c 3d c4 66 81 3d
       -0.056390796 -0.1884996 0.046059944 0.06318429
000110 92 c1 af bb 6e e4 dc 3d c4 63 72 bc bc 21 92 3c
       -0.0053636516 0.10785757 -0.014794294 0.017838351
000120 ca 4b eb bd f4 6c e7 bd 46 7b 19 3d e8 ba 88 bc
       -0.11489065 -0.11300078 0.03747108 -0.016690686
000130 47 26 df bc 0c 44 1d 3e f8 f5 fa bd 2d c6 e6 bb
       -0.027239932 0.15357989 -0.12253946 -0.0070426674
000140 ac 30 89 bd a9 fb bd bc 58 e0 f5 3c 1a b6 f1 bd
       -0.066987365 -0.02319129 0.030014202 -0.11802311
000150 53 58 1f 3e 0e 98 7f bc e9 a4 25 3e e5 e7 27 3d
       0.15561037 -0.0156002175 0.1617619 0.040992636
000160 81 80 8d 3b 1d ce d2 bd 72 aa 1b 3e 52 b2 9f bc
       0.0043182974 -0.10293219 0.15201738 -0.01949421
000170 e1 27 34 be 5d cb 17 be ae ca 22 be c3 f5 a7 bd
       -0.17593338 -0.1482367 -0.15897629 -0.08201172
000180 4e 71 28 3e 21 6d 19 be 2c 14 77 3d a7 61 59 3d
       0.16449472 -0.14983036 0.06032197 0.053071644
000190 9c c3 35 be 7c 1e 14 bd 0b 08 18 3e 43 06 8d bd
       -0.177504 -0.036161885 0.14846818 -0.0688596
0001a0 68 7d 38 be a8 de b8 bd 02 c9 93 3d d7 c7 42 3e
       -0.18016589 -0.09026843 0.072160736 0.19021545
0001b0 51 93 c0 3d 0d 68 3c be 64 22 26 3e 3e 88 2c 3e
       0.094030984 -0.18399067 0.16224056 0.16848847
0001c0 d2 0e 0b 3e 95 ad 23 be 4d 58 cb bd b3 e5 3a be
       0.13579872 -0.15984185 -0.099289514 -0.18251686
0001d0 5f fa d4 bd 34 c8 c0 bd 79 7e 34 3e 96 61 1f bd
       -0.10399317 -0.09413186 0.1762637 -0.038911425
0001e0 c2 f9 31 3c e2 7e 2f be 87 8e 1e 3e f8 40 92 3a
       0.01086277 -0.17138246 0.15484057 0.0011158278
0001f0 4a e2 ff 3d 72 22 16 3e 56 c5 29 3e 42 35 79 bd
       0.12494333 0.14661577 0.16579184 -0.060841806
000200 61 18 2a be 80 e1 0e be ef e8 9a 3d 4d 1e f7 3d
       -0.16610862 -0.13953209 0.0756396 0.12066326
000210 64 90 bb 3d 99 90 0e be a4 f6 35 be 5f df d6 bd
       0.091584 -0.13922347 -0.17769867 -0.104918234
000220 ea 73 ab bd af 85 9e 3d 71 93 24 3e 36 8e 41 be
       -0.08371718 0.07740342 0.1607187 -0.18901905
000230 db 9c 40 3e b1 c7 b2 3d 53 ff d8 bd 47 99 24 3d
       0.18809836 0.08729494 -0.10595574 0.04018524
000240 6a 2a ae 3c c4 df 96 bd 6c 1c 43 3e 7e 66 1b 3e
       0.021260459 -0.07366899 0.19053811 0.15175816
000250 af 25 d3 3d 00 b9 39 be 72 b0 2f 3e 25 06 99 bc
       0.10309922 -0.18136978 0.17157152 -0.018679688
000260 7b d4 e5 bd 3c 5b a9 bd 60 a5 c7 bd d0 0c 04 be
       -0.11222168 -0.08269355 -0.0974834 -0.12895513
000270 3a 05 2d 3e f0 e3 09 3e 25 da 02 3e 10 7b 2e 3e
       0.16896525 0.13465858 0.12778528 0.17039132
000280 4d d6 de 3d c9 73 50 bd 83 88 da bd b3 2d 0c 3b
       0.108807184 -0.05089167 -0.10670569 0.0021389544
000290 a7 03 ed 3d 90 ad 9b 3d ca f9 0f 3e 42 da 03 be
       0.11572962 0.07601464 0.1406013 -0.12876227
0002a0 38 a2 04 3d 0a a7 14 3e a9 4b 20 3d 46 5d 88 3d
       0.032381266 0.14516845 0.039134655 0.066584155
0002b0 8f 00 8e 3c ae 29 16 3d 28 e1 56 bd 1a c7 85 3c
       0.01733425 0.036660843 -0.05246082 0.01633029
0002c0 09 d1 af 3d 87 49 fe bd 70 6e 14 be 17 78 1f be
       0.08584792 -0.12416368 -0.14495254 -0.15573154
0002d0 2e aa 0f 3d 0a d5 ab bd af 90 88 bd 33 60 10 3e
       0.035074405 -0.08390243 -0.06668221 0.14099197
0002e0 80 bb 86 bd d2 03 d5 3d f0 be 0d be 38 8a 63 bd
       -0.065787315 0.10401119 -0.13842368 -0.055551738
0002f0 83 48 07 3e 74 ce f5 3d 89 63 6a bc 27 38 35 3d
       0.13211255 0.120022684 -0.014305958 0.044243004
000300 e5 56 90 bd 92 1e 9f 3c 89 29 a4 3d e8 3b 6b bd
       -0.07047824 0.019423757 0.08015735 -0.057430178
000310 10 30 84 3d 26 5a 04 3e f4 47 27 be ca 55 03 be
       0.0645448 0.12925014 -0.16336042 -0.12825695
000320 c0 f3 c7 bc 7c b4 cb bd 8a 54 eb b9 9a 99 30 3e
       -0.024408221 -0.09946534 -0.0004488568 0.17246094
000330 cb 7d b1 bc 15 af 34 be f4 ba 22 be df 8c 3a bd
       -0.021666428 -0.17644913 -0.1589163 -0.0455445
000340 61 5a d1 3c b1 a4 3d be bf c4 2d be 3c 02 fb 3d
       0.025555791 -0.18519856 -0.16969584 0.122562855
000350 d4 44 0c be d1 32 42 bc 31 62 26 3e 3f 20 17 be
       -0.13698131 -0.011852936 0.16248395 -0.14758395
000360 99 a6 b0 bc e6 d2 10 3d d7 65 3f 3e 2d 39 76 bd
       -0.021563815 0.03535738 0.18691193 -0.06011312
000370 a1 62 d8 3c f0 ca f4 bd f5 06 84 bd 53 de be 3c
       0.026414217 -0.1195277 -0.064466394 0.023299372
000380 d0 eb e9 bd 31 52 6a 3d 85 b2 19 be 44 3b f4 3c
       -0.11421931 0.05720729 -0.15009506 0.029813416
000390 f7 41 09 3e 16 2f b2 bd ef 77 9d bd d9 48 6e 3d
       0.1340407 -0.08700387 -0.07688891 0.05817494
0003a0 0a 40 2b 3e f1 6b 81 bd 56 da 2f 3e a1 b7 3f be
       0.16723648 -0.06319416 0.17173132 -0.18722393
0003b0 aa 31 2f 3d 5d 6b 31 be 43 eb 20 be 27 a9 33 bd
       0.042771973 -0.17326112 -0.15714745 -0.043862488
0003c0 6f 0e 08 3e 4a 94 16 3e 6e 38 dd 3d 40 89 d2 3d
       0.13286756 0.14705005 0.10801779 0.102800846
0003d0 25 e7 8f bd 2d 3e 4f 3c 16 bc 53 3c 79 29 88 bd
       -0.07026509 0.012649101 0.012923261 -0.06648535
0003e0 37 63 16 3d 7a 9e eb 3d 98 0b c8 bc ec a8 d3 bc
       0.036715712 0.115048364 -0.02441959 -0.025837384
0003f0 23 56 1f be ca 5a 40 3d cb 24 54 bd 7b 45 dd 3d
       -0.15560202 0.046961583 -0.0517929 0.10804268

disc.0.0.bias f4 [32]
000000 9a 81 80 bd ca 1d f7 3c 7b b4 ca 3d bd e7 97 3d
       -0.062747195 0.030165572 0.09897705 0.074172474
000010 b8 b1 a6 bd 40 17 25 3e 2d 45 c1 3d b4 8e bd 3d
       -0.08139366 0.1612215 0.09437022 0.09255734
000020 61 f7 94 3d c6 24 3b be be f8 48 3e 61 19 24 3e
       0.07273746 -0.18275747 0.19626138 0.16025306
000030 8b 08 3a 3d fa 2b a7 3d 5b 61 88 3d 48 32 13 bd
       0.045418303 0.08162685 0.06659194 -0.035936624
000040 48 79 46 be df da 1c be 1c 8a 1a be 65 18 88 3d
       -0.19382203 -0.15317868 -0.15091747 0.06645278
000050 48 2b b8 bc 4a f9 b1 3d 09 80 1b 3e dc cf fe 3d
       -0.022481576 0.08690126 0.1518556 0.1244199
000060 47 84 21 3c ad 80 ba 3d 18 ff d4 3c fc c1 65 bd
       0.0098581975 0.09106574 0.026000544 -0.0560932
000070 86 ca 0c 3e 01 ee 62 bc cf 91 21 be d3 c8 df 3d
       0.13749132 -0.01385069 -0.15778278 0.10926976

disc.0.1.weight f4 [32]
000000 5b 31 7d 3f c7 be 7d 3f b9 78 7f 3f 03 8f 80 3f
       0.98903435 0.9911923 0.99793583 1.0043644
000010 44 18 81 3f 9a 69 7d 3f 46 32 81 3f 20 f5 7f 3f
       1.008553 0.9898926 1.0093467 0.99983406
000020 91 89 81 3f ec c0 80 3f 53 00 81 3f b6 90 80 3f
       1.0120107 1.0058875 1.0078224 1.0044162
000030 b5 3a 7f 3f a4 50 7f 3f a5 2a 7d 3f 7d fb 7e 3f
       0.99698955 0.9973242 0.98893195 0.9960249
000040 dd dd 80 3f 38 73 7e 3f 0e 32 81 3f 2c 63 80 3f
       1.0067707 0.9939456 1.00934 1.0030265
000050 13 38 80 3f c9 aa 7e 3f f2 c4 81 3f 18 e7 7d 3f
       1.0017112 0.9947935 1.0138228 0.99180746
000060 29 55 7e 3f 07 ad 7e 3f 55 dc 80 3f d7 d5 7f 3f
       0.99348694 0.9948277 1.006724 0.9993567
000070 51 d3 80 3f ef 51 7f 3f 08 39 7c 3f 29 66 7c 3f
       1.0064489 0.99734396 0.9852452 0.98593384

disc.0.1.bias f4 [32]
000000 5d fe 4c bc 07 74 c6 bc 78 a0 4d 3c 0c e7 1f 3c
       -0.012511817 -0.024225248 0.012550466 0.009759676
000010 9e 89 6b 3c 84 ff 41 bc e9 cc f3 3c 5d fc 28 bc
       0.014376072 -0.011840705 0.029760795 -0.010314074
000020 c2 7e 5d bc 83 25 01 bc 59 49 bc 3c 3d 70 51 3c
       -0.013518991 -0.007882479 0.022984194 0.012783107
000030 9c da ce bb 14 9f 99 3c 37 6d 2f bb 4e 80 63 3c
       -0.0063126814 0.018752612 -0.0026767978 0.013885571
000040 1a 11 c6 3b 89 89 e9 bb c7 14 17 3d 84 69 fb 3c
       0.006044519 -0.007126991 0.03688505 0.030689962
000050 a3 9f 24 bb 8c 91 ce 3b 8f 60 58 3c bd 75 db 39
       -0.0025119565 0.0063039716 0.013206615 0.00041858657
000060 0b 57 1a bc 30 c7 c1 3b f0 5d 3e 3d 17 d4 1f 3c
       -0.009420167 0.0059136376 0.046476305 0.009755156
000070 12 48 65 bc 42 47 cf 3b 8b c8 10 bc 88 50 b7 3b
       -0.013994234 0.0063256333 -0.008836876 0.005594317

disc.0.1.running_mean f4 [32]
000000 44 8d 9c bd d7 7f 96 3c 93 e8 01 3e 31 f1 c4 3d
       -0.07644132 0.018371506 0.12686376 0.09616316
000010 2d 02 85 bd 7a 76 dd 3d e4 3b e1 3d 3e e6 25 3e
       -0.064945556 0.10813613 0.10997751 0.16201112
000020 46 95 7b 3d d0 03 33 be 65 57 38 3e 69 5d 56 3e
       0.061421655 -0.17481923 0.18002088 0.2093407
000030 81 29 a8 3d 56 34 0c 3d aa 78 a3 bb 58 7d 93 bd
       0.08211041 0.0342296 -0.0049887495 -0.07201642
000040 02 0e 4f be 13 0f 66 be d3 7f 46 be 20 50 d0 bb
       -0.20220187 -0.22466688 -0.19384699 -0.006357208
000050 f6 57 0a bd b6 75 11 3d ea 9f 1a 3e fd aa 9c 3d
       -0.033775292 0.03551265 0.15100065 0.07649801
000060 99 b1 7c bd ca cb e4 3d 86 7c 9b bc ca 00 5a bc
       -0.061692808 0.11171682 -0.018980276 -0.013305852
000070 d3 9c 02 3e 9b c7 db 3b 46 8f 6c be 12 06 e8 3d
       0.12755136 0.0067071444 -0.2310153 0.11329283

disc.0.1.running_var f4 [32]
000000 57 8a a3 3e 6c a0 09 3d e0 3d 45 3d bf 82 33 3d
       0.31941482 0.033600256 0.04815471 0.04382586
000010 4b c9 16 3c 66 8e ef 3d 6d 9c 30 3c e8 f9 fd 3d
       0.009203265 0.11697082 0.010779482 0.124011815
000020 64 cb 19 3c 72 b6 5f 3c ab a8 8e 3b c3 be c1 3c
       0.009386871 0.013654338 0.004353603 0.023650533
000030 62 60 04 3e c1 16 06 3d 34 e9 34 3e ab 95 51 3e
       0.12927392 0.032736544 0.17667085 0.2046725
000040 9e 84 38 3c b4 09 7d 3e 43 fc 91 3c b3 8d 29 3d
       0.011262087 0.24710733 0.017820483 0.0413949
000050 eb e9 25 3c fe da 28 3e ca e2 91 3c 89 f9 fe 3c
       0.010126571 0.16489789 0.017808337 0.031124847
000060 9a 16 cc 3e a5 18 8b 3d 70 8f 9c 3c 51 e7 88 3e
       0.39860994 0.0679181 0.019111365 0.2673898
000070 bc 4e 9f 3e 62 39 e1 3c 73 1a 58 3e ee 3c 90 3d
       0.31114757 0.027493183 0.2110384 0.070428714

disc.1.0.weight f4 [64, 32, 3, 3]
000000 f6 8d 49 bd 83 53 c4 bb f4 c4 b2 bc b5 ca c3 3c
       -0.04920765 -0.0059914007 -0.02182243 0.02390037
000010 b3 81 23 bd b2 e6 84 bc c3 f8 ab bc 50 5c 2a 3d
       -0.039918613 -0.016223285 -0.020992642 0.041591942
000020 f0 3c 3f 3d 92 b2 ff bb a9 13 3d 3d 74 d5 04 bd
       0.046688974 -0.0078032697 0.046161328 -0.032430127
000030 3b e2 29 bd 79 5d 43 bd 5e fa 00 3d 41 a6 4b bd
       -0.041475516 -0.047696564 0.03148877 -0.0497191
000040 f3 0a 15 bd d7 b4 dd 3c 97 0c 17 3d 9a d0 cc bc
       -0.036387395 0.02706377 0.03687724 -0.025001813
000050 08 3b 2e bc 1f 09 8f bc d7 94 64 bd a5 24 63 bd
       -0.010634191 -0.017460404 -0.055806007 -0.05545487
000060 ad 2a f8 3c 00 04 3a 3d 43 af 39 3d 58 97 2b bd
       0.030293787 0.04541397 0.04533316 -0.04189238
000070 a1 b2 ab 3c b5 94 62 bd ff ce 45 3d b1 6a 23 3c
       0.0209592 -0.0553176 0.04829311 0.009974168
000080 df 56 46 bd 61 7a 65 bd 06 99 03 bd 88 ad bf bb
       -0.04842269 -0.056024913 -0.032128356 -0.005849544
000090 63 72 e5 b9 c4 e8 cd bc 92 cd 2b bd e2 1c 13 bd
       -0.00043763508 -0.025135405 -0.041944094 -0.035916217
0000a0 74 8c 33 bc 02 bb e3 bb 33 c9 2d 3c c5 69 23 bd
       -0.01095878 -0.0069497833 0.010607052 -0.03989579
0000b0 50 2d 15 bd 48 cb 9c bc 1f bd 57 3d 76 0a 91 3b
       -0.036420166 -0.0191399 0.052670594 0.004426296
0000c0 5f 90 3a bd 98 fb a1 3c 27 16 89 bb bb 45 c2 bc
       -0.04554784 0.01977329 -0.004183549 -0.02371489
0000d0 42 c1 39 3d 18 a7 e8 3c c8 f2 3a bb 2f 59 3b 3c
       0.04535032 0.028399989 -0.0028526057 0.011434837
0000e0 2f 7b b3 bc 8c 79 1a bd 77 e0 ec bc 45 53 53 3d
       -0.021909324 -0.037713572 -0.028915627 0.051593084
0000f0 7e 92 b0 bc 08 60 23 bd 0f 51 70 bd 61 1b 62 bd
       -0.021554228 -0.039886504 -0.058671053 -0.05520189
000100 bc 95 fa bc 3f 95 8e 38 0f a3 90 3b 57 38 16 3d
       -0.030588977 6.798887e-05 0.0044139693 0.036674824
000110 7c 50 80 3c d4 85 88 bb bd fa 13 bb 8b 81 63 3d
       0.015663378 -0.004166344 -0.0022579872 0.055543464
000120 58 d6 04 bd 0b 4f 7e bc 07 1a 4d bc 96 f7 3c 3a
       -0.032430977 -0.015521775 -0.012518412 0.0007208524
000130 b6 26 2a bd e2 06 7a 3d fd 7c ff bc 8a 5b c2 bc
       -0.041540824 0.06104172 -0.031187529 -0.02372529
000140 f7 16 44 3d c9 22 56 3d 8d d2 2f bd f4 27 37 3d
       0.047873463 0.052279267 -0.042925406 0.044715837
000150 ea 69 fe 3c d8 1e 90 3c 20 c7 1e bc 39 23 4e bc
       0.031056363 0.017592832 -0.00969103 -0.01258164
000160 da f0 59 3d 12 69 27 3c 1f e9 2a 3b cd ab 56 3d
       0.05320821 0.010217922 0.0026078892 0.052409936
000170 3e 50 a4 3c 32 4b 75 3d 3c e3 17 3d 01 0c 0b bd
       0.020057794 0.059886165 0.037081942 -0.033946995
000180 b0 1e 31 bd 62 40 31 3d 65 2f 53 bb 96 47 3f 3c
       -0.043242157 0.04327429 -0.0032224294 0.011674782
000190 71 b8 ec 3c cf 50 68 bd b6 0b f3 3c b3 46 7b 3c
       0.028896542 -0.05671769 0.02966867 0.01533668
0001a0 14 8e 94 3b b0 d0 67 3b 37 c9 c7 bc 09 7e d2 bb
       0.0045335386 0.003537219 -0.024387939 -0.006423716
0001b0 76 0d b9 bc 0c 14 fe bc e0 b1 ad bc e7 a0 9a bc
       -0.022589426 -0.031015418 -0.021202981 -0.018875552
0001c0 8e 11 ee 3c 4d fa 4e bc 39 9e ae 3c 2a 6d 8c bb
       0.029061105 -0.012632919 0.02131568 -0.0042854743
0001d0 74 76 54 3c 93 db 81 3c 89 37 f7 bc 58 d1 48 3c
       0.012967695 0.015851771 -0.030177848 0.012256943
0001e0 4e 53 0c bb ba 7f 6c bc 2d e3 70 bd 0e 6a 08 bd
       -0.0021411958 -0.014434749 -0.0588104 -0.033304267
0001f0 62 4d 77 3d 41 bb 72 bc 3a 3d 18 bd 22 06 2e 3d
       0.060376532 -0.014815153 -0.037167765 0.042486317
000200 40 98 b1 bc 94 52 5b 3c 6d e2 08 bd d6 4d 1a 3d
       -0.021679044 0.013386387 -0.03341906 0.037671886
000210 28 e6 66 bd be 1b 95 bc 3c 2b 36 3d 83 6a 11 3d
       -0.056371838 -0.018201705 0.044474825 0.035501968
000220 ec 3e 76 bc 95 bf 0d bd 0e d3 2b bd 2f 10 54 bd
       -0.01502965 -0.034606535 -0.041949324 -0.051773246
000230 b1 35 00 bd 23 15 4e bb dd 17 e6 bc 8f 77 59 bd
       -0.031301204 -0.0031445704 -0.02808755 -0.053092536
000240 44 34 ba 3c 01 08 07 bd 24 fc 4b 3d 69 66 f1 bc
       0.02273 -0.032966617 0.049801007 -0.029467778
000250 0b 88 84 bd 50 bc 0f bc 19 62 2c 3d 48 1d ad bc
       -0.06471261 -0.008772925 0.04208574 -0.021132126
000260 20 2f da bc d9 a7 07 3d 8f eb 26 bd e5 59 4e 3d
       -0.0266338 0.033119056 -0.04075199 0.0503787
000270 4e a5 4a bc 68 89 64 bc 10 97 43 3d 58 8d 51 bb
       -0.012368513 -0.013948776 0.047751486 -0.0031975117
000280 ef 37 0d 3b 52 15 4c 3c af ae 23 bd cd 1f 34 3d
       0.0021548232 0.012456255 -0.039961513 0.04397564
000290 29 bd 92 bc ae 31 8b b8 64 72 25 bd 14 7a 50 bd
       -0.017912464 -6.63729e-05 -0.040392295 -0.050897673
0002a0 c7 ef 44 bd bc 61 fd bc c0 a2 9a 3c ac ac 3a bd
       -0.048080232 -0.030930392 0.018876433 -0.04557483
0002b0 74 27 c2 bc f8 fa e0 bb 1f 5d 32 bd 54 16 6e bd
       -0.023700453 -0.0068658553 -0.04354584 -0.058126763
0002c0 08 49 6b 3d 57 9d 3a bd bf 4c 0e bc 75 23 84 ba
       0.057442695 -0.045560207 -0.00868529 -0.0010081368
0002d0 d1 cd 07 3c 32 d8 06 3d 5c 15 3e 3d 3d 6f c2 3b
       0.008288817 0.032921024 0.04640709 0.005933671
0002e0 5a c3 0f 3d de f0 53 bd 79 17 41 3d 01 d3 1b bc
       0.03509841 -0.05174338 0.047141526 -0.0095107565
0002f0 cf f7 24 3a 75 92 e2 bc 32 e1 6a 3d 75 8f 6d bd
       0.000629303 -0.027657727 0.05734367 -0.05799814
000300 8e 4c 60 bc ce e5 0f bc 78 1f 4d bd ef b3 3f 3d
       -0.013690127 -0.008782817 -0.05007884 0.046802457
000310 6f a3 69 bc 40 a5 9d bc fa 47 0e bc 23 3c 0a bd
       -0.014260157 -0.019243836 -0.008684153 -0.033748757
000320 0f 6a cd bc 25 c0 89 bb 3e be e1 3c 67 64 15 bd
       -0.025074987 -0.0042038136 0.027556535 -0.036472704
000330 20 f9 19 bd 87 d9 37 bd 95 2e 40 bb cd c2 00 bd
       -0.0375911 -0.044885185 -0.002932464 -0.031435777
000340 1f a4 4f bc 36 d5 79 3c 30 12 0e 3d 22 71 1e 3d
       -0.012673407 0.015248587 0.034685314 0.03868211
000350 a7 73 88 3c fd 47 dd bc ca 86 e9 3c 52 2e 4a bd
       0.01665671 -0.027011866 0.028506655 -0.04936058
000360 c0 6c 4a 3d 2d b8 59 bd 16 de 90 3c a6 01 ca 3b
       0.04942012 -0.05315416 0.017684024 0.0061647473
000370 cc 32 ec bc 56 b9 ab bc 9a 63 46 bd c6 0e a7 bb
       -0.028832816 -0.020962398 -0.04843483 -0.0050981967
000380 4b 79 1a bd b1 83 86 bd e5 57 ac 3c 9d 17 49 bc
       -0.03771333 -0.06568087 0.021038005 -0.012273696
000390 9f 96 40 bd 62 8c 31 3d b5 2d 22 3d 8c a9 25 bc
       -0.047018643 0.04334677 0.03959437 -0.010111224
0003a0 96 89 58 bd ea 21 4f bd d2 0e 75 bd 36 13 19 3d
       -0.052865587 -0.050569452 -0.059828587 0.037371837
0003b0 c6 91 cc bc e2 96 2c 3c 64 d5 4f bd df 51 45 bc
       -0.024971854 0.01053402 -0.050740615 -0.012043445
0003c0 4c 0c 4b bd a9 08 fb 3c 25 a2 16 bd 35 fb 36 bc
       -0.049572274 0.030643778 -0.036775727 -0.011168291
0003d0 a6 1a a8 bc 32 aa 19 3d 06 66 5d bd 0c ed 3e 3d
       -0.02052052 0.037515827 -0.054052375 0.046612784
0003e0 77 22 b1 3b f4 d6 e6 bb 95 19 9c bb 4e 32 1d 3b
       0.00540572 -0.0070446674 -0.004763792 0.0023986283
0003f0 2d c2 9e bc 76 fe be 3c d8 da 01 3c 7b 3c 25 bc
       -0.0193797 0.023314696 0.007925712 -0.01008522

disc.1.0.bias f4 [64]
000000 3f c6 f3 3b 92 f6 b9 bb 58 c1 d2 3c e0 c6 f4 bc
       0.0074394043 -0.0056751454 0.02572696 -0.029879987
000010 b1 36 57 bd 1c c2 1f 3d 83 13 e2 bc 73 eb c7 3c
       -0.052542392 0.039003477 -0.027597195 0.024404263
000020 fb ff 05 bd e0 7f b4 bb 41 73 96 3c 51 51 58 bd
       -0.032714825 -0.005508408 0.018365504 -0.052811924
000030 39 ce 82 bc cc 92 56 3c 0e e5 64 3d 0e 83 75 3c
       -0.015967475 0.013096523 0.055882506 0.014984859
000040 99 ac 5b 3d 8b 35 5c 3c df 08 4d bd 1e 27 05 3d
       0.0536314 0.0134405 -0.05005729 0.03250801
000050 52 6e ca 3c ed fe 56 bc f4 1e 58 bc 97 58 ec bc
       0.024710808 -0.0131223025 -0.013190974 -0.028850837
000060 e8 a2 ab bc 99 03 13 3c 57 84 ce 3c a0 07 95 3c
       -0.020951703 0.008973026 0.025209589 0.018192112
000070 01 10 2c bd fd 86 bb bc 64 7a ac 3b c9 d5 1d 3d
       -0.04200745 -0.022891516 0.0052636135 0.03853396
000080 63 14 61 bd c6 71 4d bd 9a 16 37 bd 66 2f 99 bc
       -0.054951083 -0.05015733 -0.04469929 -0.01869936
000090 fc 8e b1 3c 7b f4 ae bc 56 78 2d bd 45 3f 27 3d
       0.021674626 -0.021356812 -0.04235109 0.040831823
0000a0 e0 68 0a 3d 26 34 ae 3c 5c da 41 3d ae b4 02 bc
       0.033791423 0.0212651 0.047327384 -0.007977648
0000b0 b0 06 46 bd 08 cc 90 3a 2c 56 65 bd 31 d2 35 bd
       -0.04834622 0.0011047134 -0.055990383 -0.044389907
0000c0 10 e9 e7 bc c3 a6 5c 3d 79 35 46 bd 91 75 56 3d
       -0.028309375 0.053869974 -0.04839084 0.052358214
0000d0 95 fd 1b bd 95 83 00 3d a3 1a 0f bd 69 f3 36 3d
       -0.03808363 0.031375486 -0.034937512 0.044665728
0000e0 8e 4e cb 3b 81 1c b0 3c 91 fb ec 3c ab 5d de bc
       0.006204433 0.021497967 0.02892855 -0.027144274
0000f0 2f b3 98 3c 05 b6 38 bd 1a 9f 3e 3d 7e 30 61 bd
       0.018640129 -0.045095462 0.04653845 -0.054977886

disc.1.1.weight f4 [64]
000000 e2 0e 84 3f 48 e1 7f 3f 0f 4d 81 3f be 52 7c 3f
       1.0317042 0.99953127 1.0101641 0.98563755
000010 3d 80 7d 3f 4f c9 7d 3f fa be 7f 3f a5 b7 82 3f
       0.990238 0.991353 0.9990078 1.0212294
000020 ff 6a 7e 3f f0 9e 81 3f bc 1a 83 3f 08 54 81 3f
       0.99382013 1.0126629 1.0242534 1.0103769
000030 99 38 81 3f 9b 9d 80 3f 82 f0 7e 3f 0e 47 7f 3f
       1.0095397 1.0048097 0.99585736 0.99717796
000040 e7 90 80 3f b6 9e 80 3f 46 a9 7f 3f 5c 73 81 3f
       1.0044221 1.0048435 0.99867666 1.011333
000050 79 aa 7e 3f d1 6b 7e 3f 76 bf 7c 3f 0d ea 7e 3f
       0.9947887 0.99383265 0.98729646 0.99575883
000060 50 ac 7f 3f f5 74 7c 3f 16 17 81 3f f2 c7 81 3f
       0.99872303 0.9861596 1.008517 1.0139143
000070 8c 7c 7f 3f 51 42 7d 3f e3 a2 7d 3f 24 78 80 3f
       0.9979942 0.98929316 0.9907667 1.0036664
000080 c2 0f 80 3f c4 cc 7c 3f 1b 72 81 3f f5 d8 7e 3f
       1.0004809 0.9874995 1.0112947 0.995498
000090 b0 36 7f 3f 73 43 7e 3f 5c 55 80 3f c1 41 80 3f
       0.9969282 0.9932167 1.002605 1.0020066
0000a0 96 58 7d 3f 4c 87 82 3f 11 45 7b 3f b9 06 7c 3f
       0.98963296 1.0197539 0.9815226 0.9844776
0000b0 31 0c 81 3f aa d8 7e 3f 0d 1f 7e 3f 17 69 80 3f
       1.0081846 0.99549353 0.9926613 1.0032071
0000c0 58 b0 7d 3f 96 92 80 3f b3 c8 80 3f 0c 09 7f 3f
       0.99097204 1.0044734 1.0061249 0.9962318
0000d0 00 02 7e 3f e3 d2 80 3f dd 38 7d 3f ad 50 81 3f
       0.992218 1.0064358 0.9891489 1.0102745
0000e0 cd 73 7c 3f b4 a4 84 3f 2d 43 7f 3f 82 3f 80 3f
       0.986142 1.0362763 0.9971188 1.0019381
0000f0 16 4e 7c 3f a9 2e 7f 3f d1 6a 7c 3f 7c ff 7f 3f
       0.9855665 0.9968057 0.9860049 0.99999213

disc.1.1.bias f4 [64]
000000 10 ba 1a 3d 40 a9 a1 3a bd 9b 49 3c dc 16 34 bc
       0.0377751 0.0012333766 0.012305197 -0.010991778
000010 37 d3 ac ba ed fc 0a bc 27 ee bb 3b d4 6a ae 3c
       -0.0013185506 -0.008483154 0.005735177 0.021291174
000020 1a ef 5f 3c 1d a1 57 3c de 70 ee 3c 80 0f 6b 3c
       0.013667846 0.013160971 0.029106554 0.014346957
000030 cb 5c d5 3a 3c b0 b3 bb 98 45 ab bc a5 92 46 3c
       0.0016278265 -0.0054836553 -0.020907208 0.012119924
000040 fd f9 59 bc f4 6d 80 b9 16 c2 b1 bc 21 86 57 3c
       -0.013304231 -0.00024495984 -0.021698993 0.013154537
000050 ac 24 86 bc d9 0f cb bb db d2 66 bc 28 7a 02 ba
       -0.016374908 -0.0061969575 -0.014088358 -0.0004977309
000060 85 7e 1c bc e1 e0 70 bb 4f 64 9c bb af 49 3d bc
       -0.009551649 -0.0036755132 -0.0047727 -0.011553212
000070 dc 32 ff 3c f4 bd de bb ea 62 d0 3b 2d 1e 5c bc
       0.031152181 -0.0067975465 0.0063594477 -0.013434929
000080 4d 6c 72 bc 81 50 de 3a ad 21 56 3c 4c 5e c9 bb
       -0.014796329 0.0016961248 0.013069552 -0.0061452743
000090 de 6a 84 b9 09 3f 8f bb 35 34 c8 bc 80 4c 81 3c
       -0.00025256624 -0.004371528 -0.024438957 0.015783548
0000a0 ec fa 65 3c b9 90 df 3b 2f ee 8c bb 0c de 31 bc
       0.014036875 0.006822672 -0.0043008546 -0.010856163
0000b0 14 6c ed bb 89 c2 b9 3a 54 4c ee b9 f6 9a e0 3b
       -0.00724555 0.0014172356 -0.00045451766 0.0068544103
0000c0 32 bd 2f bc c7 a9 3f 3c f2 f4 ab 3a 7d e9 8b ba
       -0.01072626 0.011698193 0.0013119264 -0.0010674443
0000d0 ba f8 3c 3b 22 7a 35 ba 06 37 26 3b 44 2d aa 3c
       0.0028834776 -0.0006922801 0.0025362386 0.020773537
0000e0 cc 9b 1c ba 37 02 dc 3c 92 4e 2b 3a bd 9a 1a 3a
       -0.0005974143 0.026856525 0.000653484 0.00058976916
0000f0 c8 d9 5a bc f5 5f 2b 3c 54 23 ec bb 07 c5 02 bc
       -0.013357587 0.01045989 -0.00720636 -0.007981545

disc.1.1.running_mean f4 [64]
000000 fe 50 bc be d1 0b 26 be b6 45 c1 be c9 34 c0 3d
       -0.36780542 -0.16215445 -0.37748498 0.09385068
000010 9e f9 50 be 19 3b a0 bd 0c a5 22 3e 27 20 49 3d
       -0.20407721 -0.07823772 0.15883273 0.04910293
000020 17 6a 46 bd 82 92 73 be db 2b 1d bf 03 f4 3b bd
       -0.04844102 -0.23786357 -0.61395043 -0.045887005
000030 a4 5e 96 3d 22 3c 86 be 4d 27 ed bd 1f f3 73 be
       0.0734227 -0.26217753 -0.11579762 -0.23823212
000040 1f a5 2b be b8 44 04 be 2f a3 8c be a0 d7 2f be
       -0.16762207 -0.12916839 -0.2746825 -0.17172098
000050 42 bf 4c be 9b 4c 9b be bc e2 c6 bd a8 37 f7 bd
       -0.19994834 -0.30331883 -0.09711215 -0.120711625
000060 a2 4f 83 3e 66 01 cd 3b c7 fb 75 be a8 9f 24 bd
       0.25646693 0.00625627 -0.24021827 -0.040191323
000070 35 81 c1 bd 33 62 19 3e 7a 35 1f be af 9f 87 bd
       -0.094484724 0.14978866 -0.15547743 -0.06622254
000080 a7 c7 96 be 3c 93 17 3e 30 33 5c 3e ba 55 39 3e
       -0.29449198 0.14802259 0.21503901 0.18099108
000090 9c a7 52 be ad 2a a8 3e a9 90 10 bc 56 59 50 be
       -0.2057175 0.3284506 -0.008823552 -0.20346579
0000a0 65 54 07 3e 11 e9 e2 be 67 e8 0f 3e 82 65 e0 bd
       0.13215788 -0.4431844 0.14053498 -0.10956861
0000b0 e4 0a ae be 67 50 a3 ba c2 87 75 be ac b4 41 be
       -0.33992684 -0.0012459875 -0.23977569 -0.18916577
0000c0 fe ae da be 3f bb 28 3c 6d 79 93 be f6 02 0f 3d
       -0.42711633 0.010298549 -0.28803578 0.034914933
0000d0 0b 2e c0 be 95 b4 dc be 43 95 4e 3d 80 db b8 bd
       -0.37535128 -0.43106523 0.050435316 -0.09026241
0000e0 da 21 4e be 52 bd 80 be cc 75 08 be 35 ff 90 be
       -0.20130101 -0.2514444 -0.13326186 -0.28319708
0000f0 2f 85 a3 bd 92 26 df be f8 93 d8 bd b0 ed 02 3c
       -0.07984387 -0.43584114 -0.10575098 0.007991239

disc.1.1.running_var f4 [64]
000000 5b bc ae 3d 87 98 06 3e 04 8c c2 3d 2b 64 e0 3d
       0.0853202 0.13144122 0.09499362 0.109566055
000010 b9 e8 40 3e c2 08 79 3e 1f 9d d0 3d 95 07 cb 3d
       0.18838777 0.24319747 0.101862185 0.099135555
000020 79 34 b0 3d 10 2d d4 3d a1 ff 06 3e 2e 2f 4b 3d
       0.08603758 0.103601575 0.13183452 0.04960554
000030 bc d0 2d 3e 4b ca 1b 3e 7a 2a c2 3d 24 70 a0 3e
       0.16974157 0.15213887 0.09480758 0.31335557
000040 b2 49 85 3d 5a 22 af 3d 86 3a 91 3d d7 4a 7c 3d
       0.06508197 0.08551474 0.070912406 0.06159481
000050 a9 9a b1 3d 4a 63 1c 3e 90 8a 69 3d c3 86 fa 3d
       0.08672077 0.15272251 0.05701691 0.12232735
000060 10 ff dc 3d a0 54 b6 3d 51 68 9e 3d 6d 0c 96 3d
       0.10790837 0.0890286 0.077347405 0.07326589
000070 ef 23 89 3e 4a 94 6c 3e a8 26 63 3e 2e a0 88 3d
       0.26785228 0.23103443 0.22182715 0.06671177
000080 5e c5 11 3e e9 78 6e 3d 48 67 ce 3d ae ed c6 3d
       0.14235446 0.058220778 0.10078293 0.097133026
000090 94 ed 06 3e 18 f0 09 3e 1e 4b c3 3d 33 b3 eb 3d
       0.13176566 0.13470495 0.09535812 0.11508789
0000a0 8b 32 7b 3e 10 76 d1 3d 21 58 a4 3d c5 e0 b1 3d
       0.24531 0.10227597 0.08024622 0.086854495
0000b0 f6 37 12 3e cf 78 17 3f 1b 7a 7d 3e af 0c b1 3d
       0.1427916 0.59168714 0.24753611 0.08644997
0000c0 46 1a 8f 3e 38 fb a8 3d 09 bb ca 3d 46 9f 28 3e
       0.27949733 0.08251041 0.098989554 0.16467008
0000d0 aa 09 39 3e dd ff dc 3d 9c ca 8d 3d b5 cb e7 3d
       0.18070093 0.107909895 0.0692341 0.11318151
0000e0 04 4e 3d 3e ef e1 10 3e 6b 40 01 3e 68 49 50 3e
       0.18486792 0.14148687 0.1262223 0.20340502
0000f0 da 2f 3e 3e cb d3 13 3e b1 35 39 3e 0d 71 ab 3d
       0.18572941 0.14436261 0.18086888 0.08371172

disc.2.0.weight f4 [128, 64, 3, 3]
000000 82 6a 82 3c 6c 1b e1 3b e7 b3 50 3d fa dc 5b bc
       0.015919928 0.006869724 0.05095282 -0.013419384
000010 95 75 5e bc 7f 07 39 3c 72 92 10 3d 1b 79 f2 3c
       -0.013577838 0.011293291 0.03529591 0.029598763
000020 69 a6 e3 bc dd c9 d4 bb 4a c9 2b 3d 57 69 41 3d
       -0.027789311 -0.0064937905 0.04194001 0.0472196
000030 0b 29 23 3c b3 4f c9 3c d7 53 f8 bc 2e 58 d9 3c
       0.009958516 0.024574136 -0.030313415 0.026531305
000040 8f ab 9c 3c 17 67 17 bd 93 fe 48 bc d1 9b 87 3c
       0.019124774 -0.03696355 -0.0122677265 0.016553791
000050 62 ae b4 bc 8e 15 06 bd 87 a4 e7 3c 52 c3 34 bc
       -0.022055808 -0.0327354 0.028276695 -0.011032896
000060 36 c2 54 bc f4 b1 0c bd 2f 16 63 3b fd e4 c2 3c
       -0.012985757 -0.034349397 0.0034650674 0.02379083
000070 6f 7d 0e 3d 76 ab 07 3d 24 1b 51 3d 45 9f 9b 3b
       0.03478759 0.033122502 0.051051274 0.004749211
000080 f4 b9 4b 3d ee 27 70 3c 00 bd 32 3c f3 e1 52 bc
       0.049737886 0.0146579575 0.010909319 -0.012871253
000090 8e 10 10 bd 51 85 11 3d 64 79 e1 bc 84 5e 9c 3b
       -0.035172038 0.03552753 -0.027523704 0.0047720093
0000a0 4e 11 0e bd de e9 2b 3d bd e9 a8 3c 62 4a 1f 3d
       -0.03468447 0.04197108 0.020619268 0.038889296
0000b0 7d 85 25 3c 13 93 a2 3c a8 e6 08 3c 49 71 a0 3c
       0.010102627 0.019845521 0.008355774 0.019585269
0000c0 15 3d 5b bc ed 70 b1 bb 59 8e 01 3d 8b 17 c0 3c
       -0.013381262 -0.005415073 0.031629894 0.023448726
0000d0 1a 13 d4 bc c9 28 13 bd ec 97 3a bc 0d ba 16 3d
       -0.025888015 -0.035927568 -0.01138876 0.036798526
0000e0 ec 3c 04 3d 25 77 b4 bc df 29 13 3b 64 d1 e4 bc
       0.032284662 -0.022029469 0.0022455377 -0.027931876
0000f0 26 6a 90 bb 8d 29 40 bd ad dc 1e 3c 8d 21 de 3c
       -0.004407185 -0.046914626 0.009696168 0.027115608
000100 c7 50 02 bb 80 00 c9 3c 12 57 6c 3a 3f 6c 25 bc
       -0.0019884573 0.024536371 0.000901566 -0.010096609
000110 3f 6c b4 bc 7d 27 d6 bc 18 dc 57 3b 99 df f2 3c
       -0.022024272 -0.026141876 0.0032937583 0.029647635
000120 a0 75 db bc d5 6c 3b bc 22 5d b7 bb b0 17 80 3c
       -0.026789486 -0.011439522 -0.005595819 0.015636295
000130 de 4c a4 3c 4f 46 21 3d 33 50 93 bc a0 cc e1 3c
       0.020056184 0.039373692 -0.017982578 0.027563393
000140 8e a2 25 3d 44 df 2e 3c 64 85 00 3c 6d 51 cb 3c
       0.040438227 0.010673348 0.007844303 0.0248191
000150 e4 be 14 3d 7c 11 4e 3b f6 5e b5 3c 4b 43 0f 3d
       0.03631486 0.0031443527 0.022140007 0.034976285
000160 93 ed 9c bc 54 b9 47 3c 44 42 1e 3c 5a 79 48 bc
       -0.019156253 0.012190182 0.009659354 -0.012235964
000170 d5 bc fe bb dd 06 43 bd 99 c6 2b 3c 11 04 0b 3d
       -0.0077739754 -0.047613967 0.010484361 0.033939425
000180 ef a4 37 bd 40 87 7b bc 50 a5 0f bd 0a 3b 90 3c
       -0.044835027 -0.01535207 -0.035069764 0.017606277
000190 df 4b 51 3c bb 17 77 bc ce 05 0b 3c 03 af 1a 3d
       0.012774437 -0.015081341 0.008485271 0.03776456
0001a0 d0 b9 24 3c ad 8c b7 bc 2b 31 17 bc 0f b2 42 3c
       0.010054067 -0.022405947 -0.009228031 0.011883273
0001b0 21 f1 19 3c c4 0d 25 bc 0c 87 ed bc d6 25 af bb
       0.0093958685 -0.010074083 -0.02899506 -0.0053450866
0001c0 7a 34 72 bb a7 c4 3a bd 79 20 58 bc e4 6c bd 3c
       -0.0036957548 -0.0455977 -0.013191336 0.023123212
0001d0 f9 2c d3 3b e3 ad d3 3c 81 c8 d2 3c ec 77 cf 3c
       0.00644457 0.025839752 0.025730373 0.025325738
0001e0 13 01 6d 3c 17 5e 8e bc 8a c8 c6 3c ac 47 37 bd
       0.014465588 -0.01737885 0.024265546 -0.044746086
0001f0 63 75 c1 bc d2 ac 95 bc a1 d7 41 3b ae 7b b1 bc
       -0.023615545 -0.018270884 0.0029577988 -0.02166542
000200 da 3e 78 bc 16 85 4c 3c 3e 20 a2 3c a7 d1 21 bd
       -0.015151704 0.012482902 0.019790765 -0.03950658
000210 ec d9 bc 3c 4d 41 0f 3c 36 bf 20 3d 06 f9 b3 3c
       0.023053132 0.008743596 0.039244853 0.02196933
000220 d7 a5 85 bc 6a 04 40 3c 24 4c c4 bc db 20 8a bc
       -0.01631443 0.011719802 -0.023962088 -0.01686137
000230 0e 3a f8 3b c1 59 1b bd eb 0b 9a bc a8 bb 6d 3c
       0.00757528 -0.037927393 -0.018804511 0.014510073
000240 8c 27 7b 3b 52 7c c2 bb bc 7f c6 3a c3 ff 1f 3d
       0.0038323132 -0.0059352303 0.0015144269 0.039062273
000250 c6 61 28 3c 51 76 3a bb 63 b7 81 bc 7d 15 c0 bc
       0.010277217 -0.002845187 -0.015834516 -0.023447746
000260 a6 ac 8a 3c 43 47 df bb 45 d3 d3 bc 82 af e6 bc
       0.016928028 -0.006813915 -0.025857577 -0.02815986
000270 0a bf 26 bd e7 e2 0c bc b3 d5 8a 3b d4 4b 2c bc
       -0.040709533 -0.00859902 0.0042369007 -0.010516126
000280 75 ad f6 3c b0 0d 2c bd 2e 84 85 bc e1 3a cb 3c
       0.030112008 -0.04200524 -0.01629838 0.02480835
000290 a8 cd 3f 3d ca 45 25 3d cd aa ca bc f0 49 bb 3b
       0.04682699 0.04034976 -0.024739647 0.005715601
0002a0 19 fc ba bc 9b 65 20 bc 82 b5 b0 3c d7 62 60 bc
       -0.022825288 -0.00978985 0.021570925 -0.01369544
0002b0 82 a1 c1 bc 3b 0a 94 bc a0 13 d2 3c 8f 62 41 3c
       -0.023636583 -0.018071285 0.025644124 0.011803283
0002c0 00 1e 94 3c 6b d7 76 3c ba b1 8b bc 3e 5a 9e 3a
       0.018080711 0.015066008 -0.01705252 0.0012081338
0002d0 ea ca 3a ba 3c e3 03 3d f8 68 26 bc c6 03 eb 3c
       -0.00071255735 0.03219913 -0.010156862 0.028688323
0002e0 9e 4b 41 3c 87 54 e4 bc 54 6c 95 bc 0f 44 0c 3d
       0.011797814 -0.027872337 -0.018240131 0.034244593
0002f0 76 b7 11 bd 4a 8d 07 bc d7 f5 83 3c 74 a4 1e 3a
       -0.035575353 -0.008273432 0.016108437 0.0006051727
000300 f0 5b 1f 3c 57 a1 29 bc 44 3f 0e bd e9 76 ee bb
       0.009726509 -0.010353408 -0.034728304 -0.007277359
000310 79 84 18 bd c7 89 a0 bc 56 c2 28 bc 6e b2 a9 3c
       -0.03723571 -0.019596947 -0.01030024 0.020714965
000320 bf 0e 89 3c ca aa 85 bc fa 55 1e bc 93 07 06 bc
       0.016730664 -0.01631679 -0.009664053 -0.008180517
000330 41 61 c5 bc 53 af ca bc 2b 97 6c 3c 6b c2 34 bd
       -0.024094226 -0.024741804 0.014440338 -0.044130724
000340 92 cb d4 bc 53 cd a1 bb 18 a3 dd bc f0 a4 98 bc
       -0.025975976 -0.0049378066 -0.027055308 -0.018633336
000350 f4 2d aa bc 3f 38 11 3d 6d 85 54 bc c9 f5 c9 3c
       -0.020773865 0.03545403 -0.012971264 0.024653332
000360 99 e6 88 3b 75 50 63 3c e5 d3 af 3c 81 d1 9d 3c
       0.00417788 0.013874163 0.021463344 0.019264938
000370 aa 04 06 bd ba de f0 ba c9 e4 72 bc 07 43 24 3d
       -0.03271929 -0.0018376925 -0.014825054 0.040102985
000380 ab 47 93 3b 9f 7a a0 3c 4a a5 81 3c be 5e 9c 3c
       0.0044946275 0.01958972 0.015825886 0.019088145
000390 d8 c4 de bb 74 c4 ab bc af de 02 3c 5e 7d c0 3c
       -0.006798368 -0.0209677 0.007987662 0.02349728
0003a0 69 63 f3 bc b5 da 1d ba e4 4a 34 3d 4c 11 4a 3d
       -0.029710488 -0.00060216646 0.044016734 0.0493329
0003b0 83 60 42 3b a2 3d 45 3b c0 2e f9 3c 49 8f ce bc
       0.0029659576 0.003009655 0.0304178 -0.025214808
0003c0 ac 96 12 bd bd 2a 11 bc a2 9f b6 ba 03 6d 12 bc
       -0.035788223 -0.008860287 -0.0013933072 -0.008937123
0003d0 c6 4a d5 bc b6 6b 94 3c 53 3c 9d 3c a7 4a d9 3c
       -0.026036631 0.018117767 0.019193804 0.026524855
0003e0 66 f5 a7 bb 5d 02 05 3d 10 70 50 3c c5 8d ff bc
       -0.0051256893 0.032472957 0.01272203 -0.03119553
0003f0 95 34 0e 3d 61 fc 65 3c 43 82 d0 bc c2 f3 d1 bc
       0.034718115 0.014037223 -0.025452739 -0.025628928

disc.2.0.bias f4 [128]
000000 84 5c 30 3c ae e7 e6 3c 3e 3a d7 bc 99 01 ec bc
       0.010764245 0.028186645 -0.02627289 -0.028809356
000010 7b 05 ca bc d8 c8 f6 3c c9 f7 12 bd 10 a5 5d 3c
       -0.024660816 0.030125067 -0.035880838 0.0135281235
000020 83 22 0d bc 95 20 c4 ba 62 6d ff bc 9e e7 1d 3d
       -0.008614185 -0.0014963323 -0.031180087 0.038550965
000030 b8 fb ec 3c 6a 57 16 3d 88 a4 d2 3b 95 19 58 bc
       0.028928623 0.03670446 0.006428305 -0.013189693
000040 b1 e1 b7 bb 66 7a 05 3d 95 a1 b3 3c 7c bd 12 3d
       -0.0056116213 0.03258743 0.021927634 0.035825238
000050 59 d5 ae b9 6d 7a 9b 3b ae 99 39 bc 73 f9 04 3c
       -0.00033346823 0.004744819 -0.011328144 0.008116114
000060 2e a9 9b bc 33 a9 1e bc 52 ff e8 bb 8d c4 ee 3c
       -0.01900157 -0.009683895 -0.0071105147 0.029146457
000070 5b d4 0b 3d 35 69 c5 bc f1 e7 42 ba 6a 58 0c bd
       0.034138065 -0.024098018 -0.00074350747 -0.034264006
000080 d3 05 f0 bc 8a 08 82 3c 75 0b 0f 39 68 3f 18 bc
       -0.029299652 0.015873212 0.00013641811 -0.009292461
000090 6b da 0d bd 40 da 77 bc 5a 6b e4 bb 8f 74 1d 3d
       -0.034632128 -0.015127718 -0.006970805 0.038441237
0000a0 c1 3e be 3b 0e ee 10 3d bf fd 96 bc 65 9e 06 bd
       0.0058058207 0.035383277 -0.018431542 -0.0328659
0000b0 f5 05 28 3c 83 eb 26 bd 8a 28 f7 3c 16 93 1d 3d
       0.0102553265 -0.040751945 0.030170698 0.03847035
0000c0 dc d3 91 bc 2b 5b 05 3d 66 09 24 bd 55 e7 01 3d
       -0.017801218 0.032557648 -0.040048026 0.031714756
0000d0 27 3d b2 3b a5 76 fe 3b a3 de 10 3d dd 15 45 3c
       0.005439419 0.0077656084 0.035368573 0.012029138
0000e0 88 a0 1c bd f5 64 09 bd 4d 8e 06 3c b9 ee 20 3d
       -0.038239032 -0.033543546 0.008212638 0.039290164
0000f0 b8 cd af 3c 68 29 32 bd 6f 1b cd 3b f1 c7 1d bc
       0.021460399 -0.04349652 0.006259374 -0.009630189
000100 0d ad 02 3d d4 4b 82 3c 81 c9 ed bc 86 0f 97 bb
       0.031903315 0.015905298 -0.029026749 -0.004610005
000110 e3 43 5d 3c 7f e2 e1 3c fc 57 df bc fa 90 52 3c
       0.013504955 0.027573822 -0.027263634 0.012851948
000120 d8 d8 20 3d 0a d4 52 bc 9e a7 06 bc 57 34 cf bc
       0.0392693 -0.012867937 -0.008218674 -0.025293512
000130 63 71 30 bd f1 10 32 bd 0b d5 11 bd 2b 8a 79 3b
       -0.043076884 -0.043473188 -0.035603564 0.003807674
000140 db 0a fc 3c f0 6d 03 3c f3 4b fb bb 0f 5e 93 3c
       0.030766895 0.008021817 -0.007668966 0.017989187
000150 82 b4 47 bc a2 c5 aa bb 22 c6 9f bc 02 66 7e 3b
       -0.0121890325 -0.005211548 -0.019503657 0.0038818126
000160 d2 18 ff 3c 12 80 c8 bc 6c 5b 15 bc 4e 5b fc 3c
       0.031139765 -0.024475131 -0.009116035 0.030805256
000170 76 c0 84 bb 26 e0 ed 3c ff a3 f0 3c a7 60 8f bb
       -0.0040512634 0.029037546 0.029375074 -0.0043755355
000180 22 44 92 bc 14 3e b9 3c 7b 5c 12 bd bc 09 27 3c
       -0.017854754 0.022612609 -0.035732727 0.010195192
000190 6a f4 0e bc 0c 75 a8 3b f6 34 10 3d 84 3d 93 3b
       -0.008725265 0.005140906 0.035206757 0.004493417
0001a0 e2 78 d0 3c d5 e1 06 bd ae c5 b5 3c e5 a9 14 bd
       0.025448266 -0.032930214 0.022188988 -0.036294837
0001b0 e6 6c b7 3c 4b c3 23 3d c0 e6 e8 bc 5f ac d3 bc
       0.022390794 0.039981168 -0.028430343 -0.025839029
0001c0 2b 20 98 3c 29 f5 e5 bc 43 0c da 3c fe 0f 43 bc
       0.018570026 -0.028071003 0.026617175 -0.011905668
0001d0 8f f4 24 bd 69 25 21 3b f3 b6 5f 3c 61 97 0c 3d
       -0.04027229 0.0024588949 0.013654458 0.034324054
0001e0 fa 37 12 bd fb d0 98 bc 4b 8c ab 3b 21 b9 9f 3a
       -0.035697915 -0.018654337 0.00523523 0.001218591
0001f0 bf 9e a5 3b 6f 8f 9f 3c 1e df ef bb 7c 34 a5 bc
       0.0050543244 0.019477574 -0.007320299 -0.020166628

disc.2.1.weight f4 [128]
000000 5c 28 8c 3f d4 10 8f 3f 0f f8 8e 3f 35 dd 8d 3f
       1.0949817 1.117701 1.1169451 1.1083132
000010 9b 12 8e 3f d9 58 8c 3f c3 f9 8c 3f 51 e7 8b 3f
       1.1099428 1.0964614 1.1013721 1.0929967
000020 d7 32 8e 3f dc a9 8c 3f 5b 6e 8d 3f 59 38 8d 3f
       1.1109265 1.0989337 1.1049303 1.1032821
000030 16 da 8d 3f e1 ab 8d 3f 0f 7a 8e 3f b2 6f 8f 3f
       1.108218 1.1068078 1.1130999 1.1205962
000040 60 9c 8d 3f b8 43 8d 3f b7 9c 8d 3f 1d ab 8e 3f
       1.1063347 1.1036291 1.106345 1.114597
000050 c4 9f 8d 3f 5b de 8c 3f 52 41 8e 3f 6d 43 8e 3f
       1.1064382 1.1005358 1.1113684 1.1114327
000060 2b 60 8d 3f 0f 3d 8d 3f e4 5d 8d 3f 43 98 8e 3f
       1.1044973 1.1034259 1.1044278 1.1140217
000070 00 47 8d 3f 3b 3b 8f 3f a0 c0 8c 3f 79 61 8d 3f
       1.1037292 1.1189951 1.0996284 1.1045371
000080 f4 d6 8f 3f 8c 0f 8e 3f 6c 1f 8d 3f 82 ac 8d 3f
       1.1237473 1.1098495 1.1025214 1.106827
000090 2d a3 8d 3f 01 90 8d 3f a7 c3 8e 3f cf 33 8d 3f
       1.1065422 1.1059572 1.1153458 1.1031436
0000a0 33 1b 8e 3f 21 8c 8d 3f 2f eb 8b 3f c2 61 8d 3f
       1.110205 1.1058389 1.0931147 1.1045458
0000b0 5a 73 8e 3f 3a 4c 8d 3f 6e bf 8e 3f 56 13 8d 3f
       1.1128953 1.1038888 1.115217 1.1021526
0000c0 d7 27 8e 3f a6 1a 8b 3f 7b d7 8c 3f 28 eb 8d 3f
       1.1105908 1.0867507 1.100326 1.1087389
0000d0 28 55 8e 3f bf db 8d 3f 0f 82 8b 3f e6 16 8d 3f
       1.1119738 1.1082686 1.0899066 1.1022613
0000e0 2c 85 8d 3f 86 c2 8d 3f 17 17 8d 3f 90 54 8e 3f
       1.1056266 1.1074989 1.1022671 1.1119556
0000f0 c7 b1 8c 3f 77 06 8e 3f 6b 44 8d 3f 69 96 8e 3f
       1.0991753 1.1095723 1.1036505 1.1139652
000100 2b 48 8e 3f f4 8c 8e 3f 01 7a 8e 3f ac a2 8f 3f
       1.1115774 1.1136765 1.1130983 1.1221519
000110 54 e0 8e 3f b9 ac 8d 3f 94 f9 8d 3f 76 b0 8c 3f
       1.116221 1.1068336 1.109179 1.0991352
000120 e9 2a 8d 3f b1 90 8d 3f 51 3c 8d 3f 66 9c 8d 3f
       1.102872 1.1059781 1.1034032 1.1063354
000130 e3 9c 8e 3f c4 80 8e 3f cb f9 8d 3f 58 7b 8d 3f
       1.1141628 1.1133046 1.1091856 1.1053267
000140 75 87 8d 3f ee f6 8d 3f e0 69 8e 3f 86 0c 8f 3f
       1.1056963 1.1090982 1.112606 1.1175697
000150 93 ce 8e 3f 56 b6 8f 3f e3 46 8d 3f a9 86 8d 3f
       1.1156791 1.122752 1.1037258 1.105672
000160 6a 21 8e 3f 1d 1f 8d 3f 33 66 8d 3f 59 9a 8b 3f
       1.1103947 1.102512 1.1046814 1.0906478
000170 87 4d 8e 3f 05 95 8e 3f 02 01 8e 3f 98 fa 8d 3f
       1.111741 1.1139227 1.1094058 1.10921
000180 e1 b8 8c 3f da df 8d 3f 1a fc 8d 3f 06 c4 8e 3f
       1.099392 1.1083939 1.109256 1.1153572
000190 db a1 8d 3f bd 8e 8d 3f fb 24 8d 3f d2 9d 8d 3f
       1.1065019 1.1059185 1.102691 1.1063788
0001a0 af ef 8c 3f 32 51 8c 3f b9 6f 8d 3f 29 42 8c 3f
       1.1010646 1.0962279 1.104972 1.095769
0001b0 a1 15 8e 3f 8e de 8d 3f 0b 34 8d 3f b3 75 8e 3f
       1.1100351 1.1083543 1.1031507 1.1129669
0001c0 a5 3f 8e 3f cd 76 8b 3f be c6 8e 3f bf 32 8d 3f
       1.1113173 1.089563 1.1154401 1.1031111
0001d0 e2 0e 8e 3f 9a e9 8c 3f d1 cf 8d 3f 2a 81 8d 3f
       1.1098292 1.100879 1.1079046 1.1055043
0001e0 91 5f 8f 3f 1e 63 8e 3f d8 1e 8d 3f a7 d7 8d 3f
       1.120104 1.1123998 1.1025038 1.1081437
0001f0 e7 8f 8c 3f 11 4f 8e 3f 76 d1 8e 3f 30 3c 8c 3f
       1.0981416 1.1117879 1.1157672 1.0955868

disc.2.1.bias f4 [128]
000000 0e 70 4a 3d 51 81 88 3d 5d fb 82 3d 12 ab 61 3d
       0.04942327 0.0666529 0.063956 0.055094786
000010 d5 e6 87 3d 52 be 46 3d e3 21 5f 3d 35 17 37 3d
       0.066358246 0.048521347 0.054475676 0.044699866
000020 07 d8 79 3d 2c 66 4f 3d cc a5 5a 3d 35 9d 70 3d
       0.060997035 0.050634548 0.053380772 0.058743674
000030 c8 43 7a 3d 74 56 63 3d 03 1f 7a 3d 94 30 9f 3d
       0.061099797 0.05550237 0.06106473 0.077729374
000040 f4 bc 65 3d 8e e6 6e 3d 8c 60 5d 3d d8 10 73 3d
       0.056088403 0.058325343 0.054047152 0.059342235
000050 37 7c 57 3d 54 62 62 3d 80 e6 4e 3d f3 09 7f 3d
       0.052608695 0.055269554 0.05051279 0.062265348
000060 8a 1e 80 3d d3 3c 7d 3d ce cf 71 3d 61 7c 92 3d
       0.06255825 0.061825585 0.05903607 0.0715263
000070 10 56 55 3d 73 34 98 3d 8f 59 87 3d 52 d0 45 3d
       0.05208403 0.07431879 0.06608879 0.048294373
000080 85 de a6 3d 3c f3 88 3d f2 0b 74 3d ab e1 7b 3d
       0.08147911 0.06687018 0.059581704 0.06149451
000090 4b 16 80 3d 33 60 6e 3d ab 25 94 3d a3 37 77 3d
       0.06254252 0.05819721 0.07233747 0.060355794
0000a0 84 13 89 3d 1f 2f 6d 3d 4d 7f 48 3d 08 e2 5d 3d
       0.066931754 0.057906266 0.04894953 0.05417064
0000b0 f2 15 8d 3d f4 fe 67 3d 50 b1 4b 3d 5f 65 41 3d
       0.06888951 0.056639627 0.049729645 0.047215816
0000c0 20 ba 7f 3d 66 c6 26 3d 97 a6 27 3d ef 39 77 3d
       0.062433362 0.04071655 0.040930357 0.060357984
0000d0 9e e7 78 3d cb 5e 7a 3d eb 7d 39 3d 06 eb 6e 3d
       0.060767762 0.061125558 0.0452861 0.058329605
0000e0 0d 58 6c 3d 54 b2 77 3d 0a a5 46 3d d5 0e 62 3d
       0.05770116 0.0604728 0.048497237 0.055189926
0000f0 67 bd 5c 3d f3 7d 7d 3d ab d3 71 3d 4f 8d 87 3d
       0.053891566 0.061887693 0.059039753 0.06618749
000100 22 30 6e 3d 20 a4 94 3d 61 e1 61 3d 25 85 92 3d
       0.05815137 0.07257867 0.05514658 0.071543016
000110 34 18 9e 3d 9f ad 2f 3d 56 9d 80 3d 3f 77 78 3d
       0.0771946 0.042890187 0.062800094 0.060660597
000120 c6 be 63 3d 87 08 85 3d 70 cf 71 3d c9 76 8b 3d
       0.055601858 0.06495767 0.05903572 0.06809766
000130 69 d8 8f 3d ee f2 75 3d 5c d2 63 3d 4e 41 66 3d
       0.07023699 0.06004613 0.055620536 0.056214623
000140 6c 7d 83 3d cd 2b 8b 3d 10 0d 6e 3d 87 38 92 3d
       0.06420407 0.06795464 0.058117926 0.07139688
000150 ce 63 83 3d e8 2a 98 3d 57 8c 5a 3d de 60 43 3d
       0.064155206 0.07430059 0.053356495 0.0476998
000160 8b 67 92 3d 98 83 82 3d 38 11 64 3d b8 ae 4f 3d
       0.071486555 0.06372756 0.055680484 0.050703734
000170 05 bf 72 3d 21 74 7f 3d 29 72 79 3d 23 f3 74 3d
       0.0592642 0.06236661 0.060899887 0.059802186
000180 64 20 50 3d 9c f9 69 3d 20 3f 72 3d 65 db 9b 3d
       0.05081214 0.05712281 0.059142232 0.076102056
000190 15 28 4d 3d 1b c0 62 3d 5b a8 53 3d 2b 45 75 3d
       0.050087053 0.055358987 0.05167423 0.059880417
0001a0 bf bd 7a 3d 14 28 31 3d 39 63 62 3d 8e 16 38 3d
       0.061216112 0.043251112 0.055270407 0.044943385
0001b0 90 8f 4a 3d 8f 3e 87 3d 39 60 3b 3d d8 90 5a 3d
       0.049453318 0.06603729 0.045746062 0.05336079
0001c0 38 2c 67 3d 20 ce 3d 3d fc 80 81 3d 10 55 80 3d
       0.056438655 0.046339154 0.0632343 0.062662244
0001d0 1c a4 5e 3d 12 22 66 3d cd e9 5b 3d 3f c5 65 3d
       0.054355726 0.056184836 0.053689767 0.05609631
0001e0 aa b2 9d 3d 8d e5 70 3d e6 f0 4a 3d fc 0f 86 3d
       0.07700093 0.058812667 0.049546145 0.065460175
0001f0 e1 dc 6f 3d d3 96 58 3d d8 f6 59 3d 60 90 2b 3d
       0.058560256 0.052878212 0.053213924 0.041885734

disc.2.1.running_mean f4 [128]
000000 31 fa b3 bd 53 cd 47 be ff 7b 72 3e 95 c9 a6 be
       -0.087879546 -0.19511919 0.23680113 -0.3257567
000010 57 54 50 bd 1a 1d 21 3f 4c 6e 56 3d 2c 9c 3b 3e
       -0.050861683 0.6293503 0.05235128 0.18321294
000020 3b 6b 1e 3e 64 1c 9a 3e de 1e ba bd ae b4 7e 3d
       0.15470593 0.30099785 -0.09087919 0.06218403
000030 05 38 aa be f2 27 f7 3d 79 c5 cd 3e a0 e0 e5 be
       -0.33245865 0.12068166 0.40189722 -0.44897938
000040 1f a0 c2 3c c6 43 97 3c 91 54 83 3e c7 0d af 3e
       0.023757992 0.018464934 0.25650457 0.341902
000050 6d 8f fb 3d 3a bc 14 3e b4 ed 32 3e af be 1b 3d
       0.12283216 0.14524928 0.17473489 0.038023647
000060 38 92 d0 bd c1 d1 96 3d ea 90 07 be b0 54 7c bc
       -0.10184139 0.07364226 -0.13238874 -0.01540105
000070 86 26 15 be 9a d0 cf 3d 26 21 9c be d4 89 d1 bd
       -0.14565477 0.101472095 -0.3049404 -0.10231367
000080 6a c3 a5 be 87 86 86 be ec e7 6c 3e 83 67 92 3d
       -0.32375652 -0.2627451 0.23135346 0.071486495
000090 fd 00 e3 bd 4d 20 0b bd 88 56 84 be 60 25 af bd
       -0.11084173 -0.03396635 -0.25847268 -0.085520506
0000a0 11 57 a4 bd 6e f3 09 3e 78 dc 37 be db 2e 11 3d
       -0.08024419 0.13471767 -0.17955196 0.035445075
0000b0 22 07 bc 3d 4e 3d 37 bd 18 a2 a0 3d 98 db 84 3d
       0.09181048 -0.0447362 0.07843417 0.06487197
0000c0 9a f0 0f bc e0 c4 b8 3d 1b a0 40 3e 8f b6 c7 3d
       -0.008785391 0.09021926 0.18811075 0.09751617
0000d0 f3 fa 9c 3c 6e ea e7 bc 9a 34 e1 3d 7d e9 27 3e
       0.01916263 -0.028310027 0.10996361 0.16397662
0000e0 5d 1c 09 be 9f 9a 20 be 93 46 37 3e 18 7a 96 3e
       -0.13389726 -0.15683983 0.17898016 0.29390025
0000f0 f8 1e a8 be fe 12 82 be 16 cb 90 be 34 14 9f 3e
       -0.32836127 -0.25405115 -0.28279942 0.310701
000100 55 50 0a 3e c5 a0 94 3d 08 ec 18 3e 1c 90 07 3d
       0.13507207 0.07257227 0.14933789 0.033096418
000110 64 cf 22 bf a8 d7 be 3e 1e bf be 3e 51 7b 0c 3e
       -0.635977 0.37273908 0.37255186 0.13718916
000120 80 a3 03 3d 53 a7 af bd 8e 37 c0 3d 9a f0 2c be
       0.032138348 -0.085768364 0.09385596 -0.16888657
000130 49 65 ef 3c 65 ed 5a be fe 58 17 3e c2 73 3b 3c
       0.029223101 -0.21379621 0.14780042 0.011441173
000140 4c 27 88 bd ae e4 16 be b0 65 00 be 99 2e 09 3e
       -0.0664812 -0.14735672 -0.1253879 0.13396682
000150 3c 80 9d bd 0f 25 e0 be 3e b8 a6 3c 34 7e 1d 3e
       -0.076904744 -0.43778273 0.020351525 0.15380174
000160 45 8b 57 be 3e e8 c6 bc 51 f1 93 3e 0b 35 55 3e
       -0.21049221 -0.024280664 0.28895047 0.20821016
000170 d0 93 e1 3e 5b 08 15 3d ab 48 68 be 4c ac 56 3e
       0.44058084 0.03638492 -0.2268397 0.20964164
000180 48 22 cc 3e d3 62 ab 3e c1 e7 c4 3c 9c a6 b7 bd
       0.39869905 0.33473834 0.02403629 -0.08967325
000190 4a e9 82 3d 55 09 52 be c3 6f f3 be 47 f7 02 3e
       0.063921526 -0.20511372 -0.47546205 0.12789641
0001a0 e7 d7 7c bd c0 ff 40 3e c9 ab 02 3d 44 49 45 3d
       -0.061729338 0.18847561 0.03190211 0.048165575
0001b0 b9 5e 9c 3e 53 99 84 be 05 5c cf 3e c0 cd 05 3e
       0.30541018 -0.25898227 0.40499893 0.13066769
0001c0 20 fe f2 bc 04 6d 49 be 7b aa e0 bb 62 60 bf be
       -0.029662192 -0.19670492 -0.0068562604 -0.37378222
0001d0 3a 69 4c be 45 79 93 3d cf d7 c1 3d d4 58 31 be
       -0.19962016 0.07200865 0.0946499 -0.17319041
0001e0 66 27 63 3d fe aa a8 3e 53 ea 1e be 74 75 a1 be
       0.055457495 0.32942957 -0.15519075 -0.31534922
0001f0 26 6c 56 be 88 70 c9 3e 7f b6 34 3d 23 96 ca 3d
       -0.20939693 0.39343667 0.044119354 0.098919176
